…
2025-06-21 11:26:35,699 - INFO - Loading data from HDF5 file: C:\Users\User\Projects\talbot\training\supervised\v3_hqgames_mcts\data\all_chess_data.h5
2025-06-21 11:26:39,265 - INFO - Total dataset size: 44267090 samples
2025-06-21 11:26:39,265 - INFO - Training set size: 43381749 samples (84730 batches)
2025-06-21 11:26:39,266 - INFO - Validation set size: 885341 samples (1730 batches)
2025-06-21 11:26:39,266 - INFO - Checkpoints will be saved to: C:\Users\User\Projects\talbot\training\supervised\v3_hqgames_mcts\model
2025-06-21 11:26:39,681 - INFO - Model initialized:
2025-06-21 11:26:39,682 - INFO - ChessAIModel(
  (initial_conv): Conv2d(18, 128, kernel_size=(3, 3), stride=(1, 1), padding=(1, 1), bias=False)
  (initial_bn): BatchNorm2d(128, eps=1e-05, momentum=0.1, affine=True, track_running_stats=True)
  (residual_blocks): ModuleList(
    (0-19): 20 x ResidualBlock(
      (conv1): Conv2d(128, 128, kernel_size=(3, 3), stride=(1, 1), padding=(1, 1), bias=False)
      (bn1): BatchNorm2d(128, eps=1e-05, momentum=0.1, affine=True, track_running_stats=True)
      (conv2): Conv2d(128, 128, kernel_size=(3, 3), stride=(1, 1), padding=(1, 1), bias=False)
      (bn2): BatchNorm2d(128, eps=1e-05, momentum=0.1, affine=True, track_running_stats=True)
    )
  )
  (policy_conv): Conv2d(128, 2, kernel_size=(1, 1), stride=(1, 1), bias=False)
  (policy_bn): BatchNorm2d(2, eps=1e-05, momentum=0.1, affine=True, track_running_stats=True)
  (policy_fc): Linear(in_features=128, out_features=4672, bias=True)
  (value_conv): Conv2d(128, 1, kernel_size=(1, 1), stride=(1, 1), bias=False)
  (value_bn): BatchNorm2d(1, eps=1e-05, momentum=0.1, affine=True, track_running_stats=True)
  (value_fc1): Linear(in_features=64, out_features=64, bias=True)
  (value_fc2): Linear(in_features=64, out_features=1, bias=True)
)
2025-06-21 11:26:41,570 - INFO - Using CosineAnnealingLR with T_max=1355680 (steps), eta_min=1e-06
2025-06-21 11:26:41,571 - INFO - Resuming training from checkpoint: C:\Users\User\Projects\talbot\training\supervised\v3_hqgames_mcts\model\best_chess_ai_model.pth
2025-06-21 11:26:41,741 - INFO - Scheduler state loaded from checkpoint.
2025-06-21 11:26:41,742 - INFO - Loaded best validation loss: 1.6476
…
