…
2025-06-15 10:43:44,178 - INFO - Loading data from HDF5 file: C:\Users\User\Projects\talbot\training\supervised\v2_pol_mvplayed_val_sfeval\data\chess_data.h5
2025-06-15 10:43:44,530 - INFO - Total dataset size: 5000000 samples
2025-06-15 10:43:44,530 - INFO - Training set size: 4900000 samples (9571 batches)
2025-06-15 10:43:44,530 - INFO - Validation set size: 100000 samples (196 batches)
2025-06-15 10:43:44,531 - INFO - Checkpoints will be saved to: C:\Users\User\Projects\talbot\training\supervised\v2_pol_mvplayed_val_sfeval\model
2025-06-15 10:43:44,726 - INFO - Model initialized:
2025-06-15 10:43:44,726 - INFO - ChessAIModel(
  (initial_conv): Conv2d(18, 128, kernel_size=(3, 3), stride=(1, 1), padding=(1, 1), bias=False)
  (initial_bn): BatchNorm2d(128, eps=1e-05, momentum=0.1, affine=True, track_running_stats=True)
  (residual_blocks): ModuleList(
    (0-15): 16 x ResidualBlock(
      (conv1): Conv2d(128, 128, kernel_size=(3, 3), stride=(1, 1), padding=(1, 1), bias=False)
      (bn1): BatchNorm2d(128, eps=1e-05, momentum=0.1, affine=True, track_running_stats=True)
      (conv2): Conv2d(128, 128, kernel_size=(3, 3), stride=(1, 1), padding=(1, 1), bias=False)
      (bn2): BatchNorm2d(128, eps=1e-05, momentum=0.1, affine=True, track_running_stats=True)
    )
  )
  (policy_conv): Conv2d(128, 2, kernel_size=(1, 1), stride=(1, 1), bias=False)
  (policy_bn): BatchNorm2d(2, eps=1e-05, momentum=0.1, affine=True, track_running_stats=True)
  (policy_fc): Linear(in_features=128, out_features=4672, bias=True)
  (value_conv): Conv2d(128, 1, kernel_size=(1, 1), stride=(1, 1), bias=False)
  (value_bn): BatchNorm2d(1, eps=1e-05, momentum=0.1, affine=True, track_running_stats=True)
  (value_fc1): Linear(in_features=64, out_features=64, bias=True)
  (value_fc2): Linear(in_features=64, out_features=1, bias=True)
)
2025-06-15 10:43:47,614 - INFO - 
Starting training from epoch 1 for 12 total epochs...
2025-06-15 10:43:59,121 - INFO - Epoch 1, Batch 0: P_Loss=8.5216, V_Loss=0.2251, T_Loss=8.7467, GPU Xfer: 1.67ms, FW: 581.31ms, BW: 214.19ms, Total Batch Time: 961.80ms
2025-06-15 10:44:17,647 - INFO - Epoch 1, Batch 100: P_Loss=5.9393, V_Loss=0.2000, T_Loss=6.1394, GPU Xfer: 0.43ms, FW: 63.05ms, BW: 97.57ms, Total Batch Time: 165.62ms
…
