…
2025-07-26 12:58:30,180 - INFO - Loading data from HDF5 file: C:\Users\User\Projects\talbot\src\training\supervised\v5_historic_input_channels\data\all_chess_data.h5
2025-07-26 12:58:32,731 - INFO - Total dataset size: 29192564 samples
2025-07-26 12:58:32,731 - INFO - Training set size: 28024862 samples (54737 batches)
2025-07-26 12:58:32,731 - INFO - Validation set size: 1167702 samples (2281 batches)
2025-07-26 12:58:32,732 - INFO - Checkpoints will be saved to: C:\Users\User\Projects\talbot\src\training\supervised\v5_historic_input_channels\model
2025-07-26 12:58:33,107 - INFO - Model initialized:
2025-07-26 12:58:33,108 - INFO - ChessAIModel(
  (initial_conv): Conv2d(68, 128, kernel_size=(3, 3), stride=(1, 1), padding=(1, 1), bias=False)
  (initial_bn): BatchNorm2d(128, eps=1e-05, momentum=0.1, affine=True, track_running_stats=True)
  (residual_blocks): ModuleList(
    (0-8): 9 x ResidualBlock(
      (conv1): Conv2d(128, 128, kernel_size=(3, 3), stride=(1, 1), padding=(1, 1), bias=False)
      (bn1): BatchNorm2d(128, eps=1e-05, momentum=0.1, affine=True, track_running_stats=True)
      (dropout_conv): Identity()
      (conv2): Conv2d(128, 128, kernel_size=(3, 3), stride=(1, 1), padding=(1, 1), bias=False)
      (bn2): BatchNorm2d(128, eps=1e-05, momentum=0.1, affine=True, track_running_stats=True)
    )
    (9-19): 11 x ResidualBlock(
      (conv1): Conv2d(128, 128, kernel_size=(3, 3), stride=(1, 1), padding=(1, 1), bias=False)
      (bn1): BatchNorm2d(128, eps=1e-05, momentum=0.1, affine=True, track_running_stats=True)
      (dropout_conv): Dropout2d(p=0.1, inplace=False)
      (conv2): Conv2d(128, 128, kernel_size=(3, 3), stride=(1, 1), padding=(1, 1), bias=False)
      (bn2): BatchNorm2d(128, eps=1e-05, momentum=0.1, affine=True, track_running_stats=True)
    )
  )
  (policy_conv): Conv2d(128, 2, kernel_size=(1, 1), stride=(1, 1), bias=False)
  (policy_bn): BatchNorm2d(2, eps=1e-05, momentum=0.1, affine=True, track_running_stats=True)
  (policy_fc): Linear(in_features=128, out_features=4672, bias=True)
  (value_conv): Conv2d(128, 1, kernel_size=(1, 1), stride=(1, 1), bias=False)
  (value_bn): BatchNorm2d(1, eps=1e-05, momentum=0.1, affine=True, track_running_stats=True)
  (value_fc1): Linear(in_features=64, out_features=64, bias=True)
  (dropout_fc): Dropout(p=0.25, inplace=False)
  (value_fc2): Linear(in_features=64, out_features=1, bias=True)
)
2025-07-26 12:58:34,653 - INFO - Using CosineAnnealingLR with T_max=656844 (steps), eta_min=1e-05
2025-07-26 12:58:34,653 - INFO - Resuming training from checkpoint: C:\Users\User\Projects\talbot\src\training\supervised\v5_historic_input_channels\model\chess_ai_model_epoch_4.pth
2025-07-26 12:58:34,788 - INFO - Scheduler state loaded from checkpoint.
2025-07-26 12:58:34,788 - INFO - Loaded best validation loss: 2.1702
…
