…
2025-06-12 18:00:52,638 - INFO - Loading data from HDF5 file: C:\Users\User\Projects\talbot\data\lichess_elite_db\processed\chess_move_data.h5
2025-06-12 18:00:52,988 - INFO - Total dataset size: 5000000 samples
2025-06-12 18:00:52,989 - INFO - Training set size: 4900000 samples (9571 batches)
2025-06-12 18:00:52,989 - INFO - Validation set size: 100000 samples (196 batches)
2025-06-12 18:00:52,989 - INFO - Checkpoints will be saved to: C:\Users\User\Projects\talbot\model\checkpoints_supervised
2025-06-12 18:00:53,176 - INFO - Model initialized:
2025-06-12 18:00:53,176 - INFO - ChessAIModel(
  (initial_conv): Conv2d(18, 128, kernel_size=(3, 3), stride=(1, 1), padding=(1, 1), bias=False)
  (initial_bn): BatchNorm2d(128, eps=1e-05, momentum=0.1, affine=True, track_running_stats=True)
  (residual_blocks): ModuleList(
    (0-9): 10 x ResidualBlock(
      (conv1): Conv2d(128, 128, kernel_size=(3, 3), stride=(1, 1), padding=(1, 1), bias=False)
      (bn1): BatchNorm2d(128, eps=1e-05, momentum=0.1, affine=True, track_running_stats=True)
      (conv2): Conv2d(128, 128, kernel_size=(3, 3), stride=(1, 1), padding=(1, 1), bias=False)
      (bn2): BatchNorm2d(128, eps=1e-05, momentum=0.1, affine=True, track_running_stats=True)
    )
  )
  (policy_conv): Conv2d(128, 2, kernel_size=(1, 1), stride=(1, 1), bias=False)
  (policy_bn): BatchNorm2d(2, eps=1e-05, momentum=0.1, affine=True, track_running_stats=True)
  (policy_fc): Linear(in_features=128, out_features=4672, bias=True)
  (value_conv): Conv2d(128, 1, kernel_size=(1, 1), stride=(1, 1), bias=False)
  (value_bn): BatchNorm2d(1, eps=1e-05, momentum=0.1, affine=True, track_running_stats=True)
  (value_fc1): Linear(in_features=64, out_features=64, bias=True)
  (value_fc2): Linear(in_features=64, out_features=1, bias=True)
)
2025-06-12 18:00:54,297 - INFO - 
Starting training from epoch 1 for 10 total epochs...
2025-06-12 18:01:05,011 - INFO - Epoch 1, Batch 0: P_Loss=8.4948, V_Loss=0.9376, T_Loss=9.4324, GPU Xfer: 1.63ms, FW: 485.11ms, BW: 114.91ms, Total Batch Time: 669.88ms
2025-06-12 18:01:23,069 - INFO - Epoch 1, Batch 100: P_Loss=5.9604, V_Loss=0.9064, T_Loss=6.8668, GPU Xfer: 0.44ms, FW: 37.96ms, BW: 59.90ms, Total Batch Time: 100.91ms
…
