…
2025-06-12 20:26:32,972 - INFO - Loading data from HDF5 file: C:\Users\User\Projects\talbot\data\lichess_elite_db\processed\chess_move_data.h5
2025-06-12 20:26:33,287 - INFO - Total dataset size: 5000000 samples
2025-06-12 20:26:33,287 - INFO - Training set size: 4900000 samples (9571 batches)
2025-06-12 20:26:33,288 - INFO - Validation set size: 100000 samples (196 batches)
2025-06-12 20:26:33,288 - INFO - Checkpoints will be saved to: C:\Users\User\Projects\talbot\model\checkpoints_supervised
2025-06-12 20:26:33,448 - INFO - Model initialized:
2025-06-12 20:26:33,449 - INFO - ChessAIModel(
  (initial_conv): Conv2d(18, 128, kernel_size=(3, 3), stride=(1, 1), padding=(1, 1), bias=False)
  (initial_bn): BatchNorm2d(128, eps=1e-05, momentum=0.1, affine=True, track_running_stats=True)
  (residual_blocks): ModuleList(
    (0-9): 10 x ResidualBlock(
      (conv1): Conv2d(128, 128, kernel_size=(3, 3), stride=(1, 1), padding=(1, 1), bias=False)
      (bn1): BatchNorm2d(128, eps=1e-05, momentum=0.1, affine=True, track_running_stats=True)
      (conv2): Conv2d(128, 128, kernel_size=(3, 3), stride=(1, 1), padding=(1, 1), bias=False)
      (bn2): BatchNorm2d(128, eps=1e-05, momentum=0.1, affine=True, track_running_stats=True)
    )
  )
  (policy_conv): Conv2d(128, 2, kernel_size=(1, 1), stride=(1, 1), bias=False)
  (policy_bn): BatchNorm2d(2, eps=1e-05, momentum=0.1, affine=True, track_running_stats=True)
  (policy_fc): Linear(in_features=128, out_features=4672, bias=True)
  (value_conv): Conv2d(128, 1, kernel_size=(1, 1), stride=(1, 1), bias=False)
  (value_bn): BatchNorm2d(1, eps=1e-05, momentum=0.1, affine=True, track_running_stats=True)
  (value_fc1): Linear(in_features=64, out_features=64, bias=True)
  (value_fc2): Linear(in_features=64, out_features=1, bias=True)
)
2025-06-12 20:26:34,565 - INFO - Resuming training from checkpoint: C:\Users\User\Projects\talbot\model\checkpoints_supervised\chess_ai_model_epoch_4.pth
2025-06-12 20:26:34,640 - INFO - Loaded best validation loss: 2.7891
2025-06-12 20:26:34,640 - INFO - Resumed training. Last completed epoch: 3. Next epoch to run: 4
2025-06-12 20:26:34,640 - INFO - 
Starting training from epoch 5 for 100 total epochs...
…
