…
2025-07-02 08:14:52,120 - INFO - Loading data from HDF5 file: C:\Users\User\Projects\talbot\training\supervised\v4_hqgames_with_tactics_opmcts\data\combined_data.h5
2025-07-02 08:14:52,282 - INFO - Total dataset size: 2000000 samples
2025-07-02 08:14:52,282 - INFO - Training set size: 1000000 samples (1954 batches)
2025-07-02 08:14:52,283 - INFO - Validation set size: 1000000 samples (1954 batches)
2025-07-02 08:14:52,283 - INFO - Checkpoints will be saved to: C:\Users\User\Projects\talbot\training\supervised\v4_hqgames_with_tactics_opmcts\model
2025-07-02 08:14:52,484 - INFO - Model initialized:
2025-07-02 08:14:52,484 - INFO - ChessAIModel(
  (initial_conv): Conv2d(18, 128, kernel_size=(3, 3), stride=(1, 1), padding=(1, 1), bias=False)
  (initial_bn): BatchNorm2d(128, eps=1e-05, momentum=0.1, affine=True, track_running_stats=True)
  (residual_blocks): ModuleList(
    (0-19): 20 x ResidualBlock(
      (conv1): Conv2d(128, 128, kernel_size=(3, 3), stride=(1, 1), padding=(1, 1), bias=False)
      (bn1): BatchNorm2d(128, eps=1e-05, momentum=0.1, affine=True, track_running_stats=True)
      (conv2): Conv2d(128, 128, kernel_size=(3, 3), stride=(1, 1), padding=(1, 1), bias=False)
      (bn2): BatchNorm2d(128, eps=1e-05, momentum=0.1, affine=True, track_running_stats=True)
    )
  )
  (policy_conv): Conv2d(128, 2, kernel_size=(1, 1), stride=(1, 1), bias=False)
  (policy_bn): BatchNorm2d(2, eps=1e-05, momentum=0.1, affine=True, track_running_stats=True)
  (policy_fc): Linear(in_features=128, out_features=4672, bias=True)
  (value_conv): Conv2d(128, 1, kernel_size=(1, 1), stride=(1, 1), bias=False)
  (value_bn): BatchNorm2d(1, eps=1e-05, momentum=0.1, affine=True, track_running_stats=True)
  (value_fc1): Linear(in_features=64, out_features=64, bias=True)
  (value_fc2): Linear(in_features=64, out_features=1, bias=True)
)
2025-07-02 08:14:55,150 - INFO - Using CosineAnnealingLR with T_max=39080 (steps), eta_min=1e-09
2025-07-02 08:14:55,150 - INFO - Resuming training from checkpoint: C:\Users\User\Projects\talbot\training\supervised\v4_hqgames_with_tactics_opmcts\model\best_chess_ai_model_v3.pth
2025-07-02 08:14:55,334 - INFO - Scheduler will be re-initialized from scratch, not loaded from checkpoint.
…
